…
>>> import torch
>>> import torch.nn as nn
>>> import torch.nn.functional as func
>>> import torch.optim as optim
>>> torch.tensor.ones(3,3)
Traceback (most recent call last):
  File "<stdin>", line 1, in <module>
AttributeError: 'builtin_function_or_method' object has no attribute 'ones'
>>> torch.ones(3,3)
tensor([[1., 1., 1.],
        [1., 1., 1.],
        [1., 1., 1.]])
>>> net.feedforward(torch.ones(4,4))
Traceback (most recent call last):
  File "<stdin>", line 1, in <module>
AttributeError: module 'terrainnet' has no attribute 'feedforward'
>>> net = terrainnet.terrainnet()
>>> net
terrainnet(
  (conv1): Conv2d(1, 10, kernel_size=(3, 3), stride=(1, 1))
  (conv2): Conv2d(10, 20, kernel_size=(3, 3), stride=(1, 1))
  (conv3): Conv2d(20, 40, kernel_size=(3, 3), stride=(1, 1))
  (conv4): Conv2d(40, 80, kernel_size=(3, 3), stride=(1, 1))
  (conv5): Conv2d(80, 80, kernel_size=(3, 3), stride=(1, 1))
  (conv6): Conv2d(80, 80, kernel_size=(3, 3), stride=(1, 1))
  (conv7): Conv2d(80, 80, kernel_size=(3, 3), stride=(1, 1))
  (conv8): Conv2d(80, 80, kernel_size=(3, 3), stride=(1, 1))
  (up): Upsample(scale_factor=2.0, mode=bilinear)
  (conv9): Conv2d(160, 80, kernel_size=(3, 3), stride=(1, 1))
  (conv10): Conv2d(160, 80, kernel_size=(3, 3), stride=(1, 1))
  (conv11): Conv2d(160, 80, kernel_size=(3, 3), stride=(1, 1))
  (conv12): Conv2d(160, 80, kernel_size=(3, 3), stride=(1, 1))
  (conv13): Conv2d(120, 40, kernel_size=(3, 3), stride=(1, 1))
  (conv14): Conv2d(60, 20, kernel_size=(3, 3), stride=(1, 1))
  (conv15): Conv2d(30, 10, kernel_size=(3, 3), stride=(1, 1))
  (conv16): Conv2d(11, 1, kernel_size=(3, 3), stride=(1, 1))
)
>>> net.feedforward(torch.ones(4,4))
Traceback (most recent call last):
  File "<stdin>", line 1, in <module>
  File "C:\Users\Kasper\Documents\Terrain Experiments\Assets\terrainnet.py", line 35, in feedforward
    x1 = func.max_pool2d(func.relu(self.conv1(x)), (2,2))
  File "C:\Users\Kasper\AppData\Local\Programs\Python\Python37\lib\site-packages\torch\nn\modules\module.py", line 493, in __call__
…
